keypoints/keypoint_classifier3.tflite (tflite, 6792 bytes, 6 tensors)

sequential_1/dense_5/BiasAdd/ReadVariableOp f4 [9]
000000 99 3f 6b be 83 8d 84 3e 43 94 e3 3e e2 fc 14 bf
       -0.2297348 0.25889215 0.44449052 -0.5819837
000010 42 52 90 3e 0a 15 90 be fb 23 0d bf 84 f7 b8 3d
       0.28187758 -0.28141052 -0.55133027 0.09031585
000020 6e 00 e4 3d
       0.111328945

sequential_1/dense_4/BiasAdd/ReadVariableOp f4 [10]
000000 28 4d fb 3e e3 9f 14 3f 85 35 f6 3e d0 f6 f9 bd
       0.49082303 0.5805647 0.48087707 -0.12205279
000010 3a c5 bd 3e 6d 1e 31 3f 3b 40 49 3f d1 20 1a 3d
       0.37064534 0.6918705 0.7861363 0.037628952
000020 58 87 08 3f d3 c1 87 3f
       0.5333152 1.0606025

sequential_1/dense_3/BiasAdd/ReadVariableOp f4 [20]
000000 73 2c c7 be 18 ae 68 bf 65 0d 05 bf ee 00 07 bf
       -0.389011 -0.90890646 -0.51973563 -0.52735794
000010 05 61 7d bf cf 97 16 3e 8a 47 65 bf 08 dc 69 be
       -0.98976165 0.14706348 -0.89562285 -0.22837842
000020 2d 85 1a bf a9 ab 3a bf af 08 83 bf 7a 5e 20 bf
       -0.6035946 -0.7291818 -1.0237025 -0.6264416
000030 7b e6 e2 be a8 2b ea be 59 01 42 3f 6d 45 65 bf
       -0.44316468 -0.45736432 0.75783306 -0.8955906
000040 ec ea 39 bf d0 74 a5 3e b3 b2 00 bf 72 3f a1 3e
       -0.7262409 0.32315683 -0.50272673 0.31493717

sequential_1/dense_3/MatMul f4 [20, 42]
000000 de 29 8e 3e 68 76 7c 3e 7b b1 a0 bd 8e e3 49 bd
       0.27766317 0.24654543 -0.07846352 -0.04928928
000010 74 a2 1d bd b9 94 fc 3d 13 a0 26 be 21 15 43 3e
       -0.038485005 0.12333054 -0.16272001 0.19051029
000020 59 69 86 be 33 c2 6a 3e 17 76 21 3e 15 60 d9 3d
       -0.2625225 0.22925644 0.15767704 0.10614029
000030 ad 91 78 3d 2d 08 59 3d 25 a7 35 3c de 80 49 3c
       0.060685802 0.052986313 0.011087214 0.012298791
000040 5c f8 e3 bb fe 56 83 bc 31 f3 be 3d 98 d6 11 3e
       -0.006957097 -0.016032692 0.09323729 0.14242017
000050 59 7b 3d 3d fb 1a e1 3d d6 27 31 3c 49 77 90 bd
       0.04626021 0.10991474 0.01081272 -0.07054002
000060 e7 4c 67 bd a2 d9 d4 bc 0b 18 86 3d fc ff 2a 3e
       -0.056469824 -0.025982682 0.065475546 0.16699213
000070 d2 93 5a bd ce 4f df 3d d6 f4 2f 3e 20 af 30 be
       -0.05336363 0.109038934 0.17183241 -0.17254305
000080 f3 2b d1 3e c3 e2 07 bf ea 42 8b bd e9 10 64 3e
       0.40853843 -0.53080386 -0.06799872 0.22272076
000090 f0 ac 9d bd be 12 f7 3d 84 dc b1 bc e2 ad 52 be
       -0.07699001 0.12064122 -0.021711595 -0.20574144
0000a0 a3 a6 a8 3e e2 29 a6 bf a2 38 89 bd 28 42 1e 3d
       0.32939634 -1.2981532 -0.06700255 0.03863731
0000b0 be c2 2f bf 37 23 61 bf e1 b2 98 be c2 e5 0c bf
       -0.6865653 -0.8794436 -0.29823974 -0.5503808
0000c0 9c f7 41 be e1 94 9a be 73 1a d7 3d b9 76 6b be
       -0.18942112 -0.3019171 0.10503092 -0.22994508
0000d0 46 6d 5f 3e 39 25 9d be 89 96 64 39 34 74 aa bd
       0.21819028 -0.3069246 0.00021799853 -0.08322945
0000e0 61 2b dd bd d6 a4 9a 3e 3e e8 cf bd 47 f4 db 3e
       -0.107992895 0.30203885 -0.101517186 0.42959806
0000f0 e5 fb 5f 3e 2b 8e c4 be 53 78 c5 3d 91 01 14 be
       0.21873434 -0.38389716 0.09642091 -0.14453723
000100 11 4c c9 bd e8 8a 34 3e 94 f0 37 be 60 26 2b 3e
       -0.09828962 0.17631114 -0.17962867 0.16713858
000110 c7 5d 8c 3e ce ed ff be c6 b6 00 3e a7 d1 11 be
       0.27415296 -0.49986118 0.12569723 -0.14240132
000120 77 5f 2b 3d 7e d3 60 bd ce 7c c3 bd 94 6c c1 bc
       0.04183909 -0.054889195 -0.09545289 -0.023611344
000130 75 8b 6b 3e 68 48 02 bf 3e aa 89 3d 5f 73 83 be
       0.23002417 -0.50891733 0.06721924 -0.2567396
000140 c1 62 a9 3c 2a 19 ee bd 6b 91 02 be 7b 5d 6b bd
       0.020676972 -0.116258934 -0.12750785 -0.057462197
000150 0c 1d da 3d 34 8f 77 3e 81 e9 e3 3d f6 c4 c8 3e
       0.106500715 0.24175721 0.11128522 0.3921277
000160 2f 6c 03 3e 1c 7c 7c 3e dd 15 11 3e 06 71 77 3e
       0.12834238 0.24656719 0.14168496 0.24164209
000170 46 91 1e 3e 10 2f 80 3e 83 64 e7 3d 85 4f 27 3d
       0.15485105 0.25035906 0.11298468 0.04084732
000180 49 52 33 3c e5 bb 8e 3d 95 d1 16 bd 70 b2 7d 3d
       0.010944911 0.06969432 -0.036820967 0.06193775
000190 bc c8 b2 3a d6 a6 5a 3d 71 13 10 3e 35 02 6b 3d
       0.0013640146 0.053381763 0.14069916 0.05737515
0001a0 80 e8 44 3d fe 69 8a 3d 71 32 17 be ed 3b 56 be
       0.04807329 0.06758498 -0.14765336 -0.20921297
0001b0 b8 53 ed be 90 a4 37 bd cb 77 3a 3e 34 95 23 3d
       -0.46352935 -0.044834673 0.1820976 0.039937213
0001c0 85 09 6e 3d 3b 26 0f 3d eb 45 56 be 97 52 ef be
       0.058114547 0.03494857 -0.20925109 -0.467427
0001d0 9a 9d 33 bf 77 42 6f bf ca e1 76 3e 8d 4f 01 3e
       -0.70162356 -0.9346079 0.24109569 0.12628002
0001e0 1b 84 0b 3e e9 8e 9b 3d 87 48 86 3b 88 3f 38 be
       0.13624613 0.07595617 0.0040980014 -0.17992985
0001f0 be 4c e6 be 46 fc ad bc 9f b1 8a be 90 85 e2 3d
       -0.44980425 -0.021238457 -0.2708864 0.11060631
000200 97 d4 5c 3d ee 28 8c 3e d2 cc c5 3d c0 e7 20 3e
       0.05391368 0.27374977 0.09658207 0.15713406
000210 d4 50 93 3d 8f 99 b4 3d 62 83 70 3d 46 31 8a 3d
       0.07193151 0.088183515 0.058719046 0.067476794
000220 cb 9b b7 3c 19 c8 8d 3d a1 93 e1 3b 89 88 a2 3d
       0.022413155 0.06922931 0.006884054 0.07936198
000230 f6 b0 8d bc f5 e9 f4 3d 1a 35 71 bd 32 f3 58 3d
       -0.017296296 0.11958686 -0.058888532 0.052966304
000240 71 79 ba ba 68 47 8d 3d 38 b9 2c 3d 3f a4 6e 3d
       -0.0014226866 0.06898385 0.042168826 0.058262106
000250 45 24 95 bd 18 2d 9c 3d a3 fb d1 be 13 ec d3 bf
       -0.072823085 0.076257885 -0.41012296 -1.6556419
000260 b5 c9 94 bc 89 c8 61 3d c4 0a a7 3d dc 23 5d 3d
       -0.018162588 0.055122886 0.0815635 0.053989276
000270 a8 d6 02 3c d6 69 b4 3d 5e 79 06 be 21 f8 12 3e
       0.007985748 0.08809249 -0.13132235 0.14352466
000280 c9 49 59 bd f3 05 6f 3c 36 de 45 3d 9a b7 2c 3d
       -0.053048883 0.014588821 0.04830762 0.042167284
000290 e8 de e4 3c 57 a7 87 3d 32 de ca bd f5 09 a9 3d
       0.027938321 0.066237144 -0.09905662 0.08253852
0002a0 2c a9 de bd 18 68 80 bd 5a ac 80 be 91 1f 9e be
       -0.10872111 -0.06269854 -0.25131494 -0.30883458
0002b0 df f6 53 3d 9f 22 00 be c3 80 f1 3c c8 f0 8d be
       0.051749106 -0.12513207 0.029480344 -0.27722764
0002c0 58 70 cb 3b 49 ec d9 be e3 f2 2e be 20 8c a5 bd
       0.006208461 -0.42563084 -0.17084841 -0.08083367
0002d0 ac 46 c3 bc 04 67 1a be 7f 9e 83 3d c0 5a e2 3d
       -0.02383741 -0.1507836 0.06426715 0.110524654
0002e0 e5 4d a3 3d 93 4d 8c 3e 29 24 10 be a2 1d 03 be
       0.079738416 0.27402934 -0.14076294 -0.12804273
0002f0 50 ed 39 3d a4 d5 28 bd f5 1b 5f 3d 15 51 bb 3e
       0.045392334 -0.04121937 0.05447002 0.36585298
000300 db dd f0 bc 9a 2a 88 3e f4 8f 5e be d1 a2 c1 be
       -0.029402664 0.26595002 -0.21734601 -0.37819532
000310 96 96 e8 3d 07 d6 2d be e6 71 d0 3d 6f 90 58 3e
       0.11356847 -0.16976176 0.101779744 0.21148847
000320 28 61 bb ba 14 e3 89 3e da 48 51 be 73 8b 58 bf
       -0.0014295923 0.2693106 -0.20437947 -0.8458778
000330 9f cf af 3d 04 9e 62 bf f0 d2 ea 3d 89 bd 1f bf
       0.085845225 -0.8852236 0.114660144 -0.6239858
000340 00 7f 97 3d e2 0e ef be 1a 27 a9 bd 80 4c 00 bb
       0.0739727 -0.46691042 -0.08259411 -0.0019576848
000350 69 80 f8 be b8 35 3d 3f d4 c8 47 be a9 19 d1 3e
       -0.4853547 0.73910093 -0.19510204 0.4083989
000360 11 37 d4 3b 77 ad e7 3e b4 1b 11 3e 20 54 d5 3e
       0.006476291 0.4524953 0.14170724 0.41665745
000370 76 f8 3c be a9 4a 73 bd 0c ba f8 bd a2 f3 be bd
       -0.18454155 -0.059397373 -0.121448606 -0.09323813
000380 13 0f eb 3d 54 5c 00 be 1a 2a 18 3f 49 79 69 bf
       0.114774846 -0.1253522 0.5943924 -0.9120069
000390 cc 28 eb bd cc a4 1a bd 03 cc ee bd 78 15 1b 3e
       -0.11482391 -0.03775482 -0.11660006 0.15144908
0003a0 96 79 27 be 93 66 a1 3e 2b b7 d5 bd d3 17 17 3e
       -0.16354975 0.3152357 -0.10435327 0.14755182
0003b0 b1 cf f8 3d 25 a3 45 bd 2a f7 5d bd c5 37 ed 3d
       0.12148989 -0.04825129 -0.054190792 0.11582903
0003c0 33 3c 6b bd 5c 67 de 3d 59 c0 81 3d dc 73 6e bd
       -0.057430457 0.10859558 0.063355155 -0.05821596
0003d0 54 28 82 3e 44 f3 af bd c7 82 da 3d 8a 85 9b 3d
       0.25421393 -0.08591321 0.10669475 0.0759383
0003e0 79 d6 30 3d 5a 62 26 3e ea 28 ad 3d d9 dc 36 3d
       0.043173287 0.16248456 0.08455069 0.04464421
0003f0 1c 04 9b 3e 60 29 3a bc bf 70 30 bf 79 d7 a3 be
       0.30276573 -0.011362404 -0.68922037 -0.3200033

sequential_1/dense_4/MatMul f4 [10, 20]
000000 95 b5 4b be 79 e4 c5 3e f6 8e cc 3d 97 43 0e 3f
       -0.19893487 0.38650873 0.09988205 0.55571884
000010 a8 a2 53 3d 24 66 8d be 7f fe 24 3f 4f f0 1e 3f
       0.051668793 -0.2761699 0.6445083 0.6208543
000020 f3 7c c5 3e 65 03 a3 3e 83 5c 9b bc 7b fe 50 3f
       0.3857189 0.31838527 -0.018965011 0.81638306
000030 cb a5 d4 3d 46 4f 8f be aa a7 07 bc 21 c5 5d 3f
       0.10383185 -0.27990168 -0.00827972 0.8662892
000040 32 8b 4c 3d ec 87 6e 3f 21 d8 16 3f 5a fb 48 3f
       0.049937434 0.9317615 0.58923537 0.7850853
000050 d0 41 04 3f 85 e1 4c 3f ae fa af be 0c 66 10 be
       0.5166292 0.80031615 -0.3437094 -0.14101428
000060 f6 0e 74 3f 3c c5 b1 be 9e 2f 60 3f 69 1a d8 3c
       0.9533533 -0.3472079 0.8757266 0.02637978
000070 d0 c1 a6 3c b6 d1 9f 3d d2 d5 6b bf b0 3b e2 be
       0.020356089 0.07803671 -0.9212314 -0.44186163
000080 ed a1 d3 3d 44 b9 c5 3e b9 4c 1a be ac ce a1 3d
       0.10333619 0.3861791 -0.1506833 0.07900748
000090 04 20 60 be 43 6a 9d be 83 8d 0a bd c9 a2 5c bd
       -0.21887213 -0.30745134 -0.033826362 -0.05386618
0000a0 05 eb 97 bf ce b5 b2 bd 49 d2 a5 bf 8b 95 33 bf
       -1.1868597 -0.08726083 -1.2954799 -0.7015006
0000b0 da 2a ed bd d4 f4 36 bf 4b c2 84 bf 5a e6 b5 bd
       -0.11580439 -0.7146733 -1.0371794 -0.08881827
0000c0 6d 0d a0 be 3f 92 80 be f8 5c de 3b 19 62 85 bd
       -0.31260243 -0.25111577 0.006785985 -0.06512851
0000d0 87 51 83 bf 14 1c a7 bf e0 c9 13 3e b6 d5 bc be
       -1.0259255 -1.3055444 0.14432478 -0.36881799
0000e0 e3 86 f4 be 9f 0e 16 3c c1 0e 05 bf 16 82 41 3e
       -0.4775916 0.009158759 -0.5197564 0.1889728
0000f0 b6 3f 13 3e b4 40 c2 be 37 4e 02 3f eb fc 82 3f
       0.14379773 -0.3793999 0.50900596 1.0233434
000100 c0 13 47 be bc 20 d2 3b 03 6f 4e 3e 2f ec cd 3e
       -0.19441128 0.0064125936 0.20159535 0.40219256
000110 ef d7 e7 be 40 8b 75 3f b4 d2 94 bf e0 ac 44 3f
       -0.45281932 0.95915604 -1.1626801 0.76826286
000120 0c 07 e2 3e f9 1e 56 3e ae 1a ad 3e 71 d3 dd bd
       0.44146 0.20910253 0.33809417 -0.10831345
000130 b2 43 00 bf 36 c1 1b 3f 75 1b 23 3f e4 ef 08 3f
       -0.50103295 0.6084169 0.6371377 0.53491044
000140 d3 cf ce bd 38 1f ec 3e d1 e6 02 3e e0 76 25 3f
       -0.10098233 0.46117568 0.12783362 0.64634514
000150 36 fc c5 3b 29 0c d7 bd a6 1f 2f 3f c2 cc 4c 3f
       0.006042029 -0.10500366 0.68407667 0.79999936
000160 ea 98 48 3f d6 96 11 3f 1c 60 33 3f 7e 3c 16 3f
       0.7835833 0.5687078 0.70068526 0.58686054
000170 80 30 8d 3e 58 0f fd bd ad 48 2f bf 4a 78 47 3f
       0.27576065 -0.12356442 -0.6847027 0.7791792
000180 18 cb 48 3f bf 57 2e 3e c8 a0 83 3e 80 91 5c 3e
       0.78434896 0.1702566 0.25708604 0.21539879
000190 53 4f 45 3e 2f c4 01 be ff a9 b4 bd 98 7e 44 be
       0.19268541 -0.12672494 -0.08821487 -0.19188917
0001a0 03 5f 21 3d 7b 4b 61 3f 3f 67 93 be c8 8b 6d 3f
       0.03939725 0.880058 -0.28789708 0.92791414
0001b0 e1 4c 23 be ad 12 fd 3e 93 23 b2 3e da ad 86 3f
       -0.15947296 0.4942831 0.34792766 1.0521805
0001c0 43 97 98 3c c0 ca 13 3e ff 33 f3 3e ca 26 c1 3d
       0.018626815 0.14432812 0.47500607 0.094312266
0001d0 2c 72 14 bf d9 88 a9 3e 0d f5 2d 3f ae 53 86 3f
       -0.5798671 0.3311222 0.6795204 1.0494287
0001e0 34 21 93 bf 46 36 81 bd 34 ea 69 bd cc c4 6c 3f
       -1.1494508 -0.0630918 -0.05710812 0.9248779
0001f0 9d a5 f0 bc a6 2c c1 3e 7a 1a 9e bd d2 52 0e be
       -0.029375846 0.37729377 -0.07719894 -0.13898781
000200 da 5c 62 bf 6a 79 7f bf 30 e7 fb be b2 33 7e bf
       -0.8842293 -0.9979464 -0.4919982 -0.9929763
000210 65 da a6 3e 8d 87 b7 bf 89 f3 59 3e f2 e9 68 bf
       0.32588497 -1.4338242 0.21284308 -0.9098197
000220 d7 01 35 be 49 0a bc 3e e4 1f 2e bf 31 bf 38 bd
       -0.17676483 0.36726597 -0.6801741 -0.04510421
000230 a7 ff 89 3e 95 eb 2d bf 8e 2f 00 3f c5 cc 89 be
       0.2695286 -0.67937595 0.5007256 -0.2691404
000240 85 d6 ee 3e 4b ed e9 3e 56 cf b7 bd 0c 59 d3 bc
       0.4664804 0.45688853 -0.08975093 -0.025799297
000250 2d b0 9f 3f 3c 25 2d 3f c7 53 ab 3f 09 09 1a 3e
       1.247564 0.6763494 1.3384942 0.15042509
000260 4f 5f 38 3e dc 75 f4 3e c1 8d 56 3f 3c 48 23 3f
       0.18005107 0.4774617 0.8381005 0.63782096
000270 0e 2a 5f 3f 83 f5 66 3d 41 a9 95 be a1 a1 24 3e
       0.87173545 0.056386482 -0.29230693 0.16077282
000280 cf 2d 75 3f 32 56 90 3e d3 95 8e 3f 38 56 7c 3f
       0.95773023 0.28190762 1.1139473 0.9856906
000290 a3 7c 2d 3f cf 99 8b be ae 5f e9 3e 5a 0a b5 bd
       0.67768306 -0.27265784 0.4558081 -0.08839865
0002a0 ed 08 a4 be 0b c8 95 3e 1d 3a 33 bf a5 06 5e be
       -0.3203806 0.29254183 -0.7001055 -0.21682222
0002b0 81 ba 05 3f 56 7f 85 3f eb 85 bf be db 19 79 3d
       0.5223771 1.0429485 -0.3740686 0.060815673
0002c0 3c d1 46 3e 91 03 27 3d 07 c7 c2 3d 9a 43 a9 bf
       0.19415754 0.040774886 0.09510618 -1.3223755
0002d0 67 bc 87 bf 0d bf f4 3e 60 13 b4 bf 80 f1 87 bf
       -1.0604371 0.4780201 -1.4068413 -1.0620575
0002e0 2c 45 2f 3f fd c8 d2 3e 78 fa 59 be 21 84 21 3e
       0.6846492 0.41168967 -0.21286952 0.1577306
0002f0 cc 03 ef bd a9 94 ce be 60 e8 a2 3e b1 5b c8 be
       -0.11670646 -0.40347794 0.31817913 -0.39132455
000300 bd cc 72 bf 74 65 83 bf 8e d9 8d 3e 57 e9 d3 3e
       -0.94843656 -1.0265336 0.27705044 0.41388962
000310 d2 12 e7 be ca 80 a5 3e 0a 24 1b bf 3a ec 95 3e
       -0.45131546 0.3232482 -0.60601866 0.2928179

sequential_1/dense_5/MatMul f4 [9, 10]
000000 6f 34 31 be 76 f5 40 3e f0 5f ed 3d 6e 89 7e 3f
       -0.17305158 0.18843636 0.11590564 0.9942845
000010 0c b8 11 be 03 da 3a 3f 9b d6 8f be b6 d5 5e bd
       -0.14230365 0.7298891 -0.28093418 -0.05440303
000020 18 aa 9d 3e 51 3e 32 bf e8 df 97 3e b2 e2 08 3f
       0.30793834 -0.6962634 0.29663014 0.5347091
000030 a8 59 64 bf 68 d1 88 be 4c 34 43 3f b0 ef c2 bd
       -0.89199305 -0.26722264 0.76251674 -0.09518373
000040 2e e6 70 bf b5 d5 83 3f 9f 92 19 bf 8d 0d 9f 3e
       -0.94101226 1.0299593 -0.5998935 0.31065026
000050 f2 a8 e1 be 6f 9b 2b 3e ee d3 90 3f 69 93 12 bf
       -0.44074208 0.16758512 1.1314676 -0.5725618
000060 44 4c 63 be e7 ff 21 3f 5a e9 1c 3e 64 31 16 bf
       -0.22197062 0.632811 0.15323392 -0.58669114
000070 c0 1d 7f bf d4 2a 99 3f 23 0b 4a bf d2 6d ea 3e
       -0.9965477 1.1966195 -0.78923243 0.4578691
000080 f1 34 13 bf 99 22 03 be bb c6 f9 3c f2 28 e7 bf
       -0.5750266 -0.12806167 0.03049027 -1.805937
000090 b6 de 44 3e 0c 03 3c bf ed 7b 92 3f 25 5f 16 bf
       0.19225582 -0.7344215 1.1444069 -0.5873893
0000a0 19 d1 a6 bd a8 80 dd be 9e 38 93 bf 8b ea e2 3e
       -0.08145351 -0.4326222 -1.1501653 0.44319567
0000b0 8d d0 2f bf 32 cb 02 bf 30 8a be 3f 8b 93 5a bf
       -0.686776 -0.510913 1.4885921 -0.8538138
0000c0 a9 ab 41 be 50 8e e0 bc c5 f1 79 3e d2 49 41 bf
       -0.1891314 -0.02741161 0.24408634 -0.75503266
0000d0 d5 90 80 bf 42 2f 30 3f 5b 2b 57 3f 8e 50 95 be
       -1.0044199 0.6882211 0.8405053 -0.2916302
0000e0 75 ea 4f be 40 97 7d bf 18 79 01 bf 54 49 7f be
       -0.20304282 -0.99058914 -0.505754 -0.24930316
0000f0 cf 75 8d 3f 37 22 0f bf 4e b7 24 bf 0d ed 23 bf
       1.1051577 -0.5591158 -0.643422 -0.64033586
000100 ce 27 72 3f ad 32 9d bd 9c d0 24 bf 26 b6 3b be
       0.9459199 -0.07675681 -0.6438081 -0.18331203
000110 b6 67 2b c0 19 0b 32 bf 4b fe 18 c0 1d c6 5b bf
       -2.678205 -0.69548184 -2.3905208 -0.8584917
000120 ec 4f 5d be 59 8b cf be 0a 0a dd 3e 97 e4 af 3e
       -0.21612519 -0.40536 0.43171722 0.34354088
000130 fe b0 29 bf 06 c6 90 3f 5d f1 a6 be 0d bf 65 bf
       -0.66285694 1.1310432 -0.3260602 -0.89744645
000140 c8 3e dd bf 99 a6 5e 3f 47 e1 2b bf 62 d6 bb bf
       -1.7284784 0.8697296 -0.6714062 -1.46748
000150 64 14 d7 bf 3e 4e 19 3f 28 7f 27 bf ce c5 77 be
       -1.6803098 0.59885013 -0.654284 -0.2419655
000160 b2 9b 4b 3e 39 6d 72 3e
       0.19883612 0.23674478
